{
  "nodes": [
    {
      "op": "null", 
      "name": "input_view", 
      "inputs": []
    }, 
    {
      "op": "transpose", 
      "name": "transpose0", 
      "attrs": {"axes": "[0, 3, 1, 2]"}, 
      "inputs": [[0, 0, 0]]
    }, 
    {
      "op": "null", 
      "name": "convolution0_weight", 
      "attrs": {
        "kernel": "(3, 3)", 
        "layout": "NCHW", 
        "num_filter": "32"
      }, 
      "inputs": []
    }, 
    {
      "op": "null", 
      "name": "convolution0_bias", 
      "attrs": {
        "kernel": "(3, 3)", 
        "layout": "NCHW", 
        "num_filter": "32"
      }, 
      "inputs": []
    }, 
    {
      "op": "Convolution", 
      "name": "convolution0", 
      "attrs": {
        "kernel": "(3, 3)", 
        "layout": "NCHW", 
        "num_filter": "32"
      }, 
      "inputs": [[1, 0, 0], [2, 0, 0], [3, 0, 0]]
    }, 
    {
      "op": "Activation", 
      "name": "activation0", 
      "attrs": {"act_type": "relu"}, 
      "inputs": [[4, 0, 0]]
    }, 
    {
      "op": "null", 
      "name": "convolution1_weight", 
      "attrs": {
        "kernel": "(3, 3)", 
        "layout": "NCHW", 
        "num_filter": "32"
      }, 
      "inputs": []
    }, 
    {
      "op": "null", 
      "name": "convolution1_bias", 
      "attrs": {
        "kernel": "(3, 3)", 
        "layout": "NCHW", 
        "num_filter": "32"
      }, 
      "inputs": []
    }, 
    {
      "op": "Convolution", 
      "name": "convolution1", 
      "attrs": {
        "kernel": "(3, 3)", 
        "layout": "NCHW", 
        "num_filter": "32"
      }, 
      "inputs": [[5, 0, 0], [6, 0, 0], [7, 0, 0]]
    }, 
    {
      "op": "Activation", 
      "name": "activation1", 
      "attrs": {"act_type": "relu"}, 
      "inputs": [[8, 0, 0]]
    }, 
    {
      "op": "Flatten", 
      "name": "flatten0", 
      "inputs": [[9, 0, 0]]
    }, 
    {
      "op": "null", 
      "name": "fullyconnected0_weight", 
      "attrs": {"num_hidden": "256"}, 
      "inputs": []
    }, 
    {
      "op": "null", 
      "name": "fullyconnected0_bias", 
      "attrs": {"num_hidden": "256"}, 
      "inputs": []
    }, 
    {
      "op": "FullyConnected", 
      "name": "fullyconnected0", 
      "attrs": {"num_hidden": "256"}, 
      "inputs": [[10, 0, 0], [11, 0, 0], [12, 0, 0]]
    }, 
    {
      "op": "Activation", 
      "name": "activation2", 
      "attrs": {"act_type": "relu"}, 
      "inputs": [[13, 0, 0]]
    }, 
    {
      "op": "null", 
      "name": "input_feature", 
      "inputs": []
    }, 
    {
      "op": "null", 
      "name": "fullyconnected1_weight", 
      "attrs": {"num_hidden": "256"}, 
      "inputs": []
    }, 
    {
      "op": "null", 
      "name": "fullyconnected1_bias", 
      "attrs": {"num_hidden": "256"}, 
      "inputs": []
    }, 
    {
      "op": "FullyConnected", 
      "name": "fullyconnected1", 
      "attrs": {"num_hidden": "256"}, 
      "inputs": [[15, 0, 0], [16, 0, 0], [17, 0, 0]]
    }, 
    {
      "op": "Activation", 
      "name": "activation3", 
      "attrs": {"act_type": "relu"}, 
      "inputs": [[18, 0, 0]]
    }, 
    {
      "op": "Concat", 
      "name": "concat0", 
      "attrs": {"num_args": "2"}, 
      "inputs": [[14, 0, 0], [19, 0, 0]]
    }, 
    {
      "op": "null", 
      "name": "fullyconnected3_weight", 
      "attrs": {"num_hidden": "33"}, 
      "inputs": []
    }, 
    {
      "op": "null", 
      "name": "fullyconnected3_bias", 
      "attrs": {"num_hidden": "33"}, 
      "inputs": []
    }, 
    {
      "op": "FullyConnected", 
      "name": "fullyconnected3", 
      "attrs": {"num_hidden": "33"}, 
      "inputs": [[20, 0, 0], [21, 0, 0], [22, 0, 0]]
    }, 
    {
      "op": "mean", 
      "name": "mean0", 
      "attrs": {
        "axis": "1", 
        "keepdims": "True"
      }, 
      "inputs": [[23, 0, 0]]
    }, 
    {
      "op": "broadcast_sub", 
      "name": "broadcast_sub0", 
      "inputs": [[23, 0, 0], [24, 0, 0]]
    }, 
    {
      "op": "null", 
      "name": "fullyconnected2_weight", 
      "attrs": {"num_hidden": "1"}, 
      "inputs": []
    }, 
    {
      "op": "null", 
      "name": "fullyconnected2_bias", 
      "attrs": {"num_hidden": "1"}, 
      "inputs": []
    }, 
    {
      "op": "FullyConnected", 
      "name": "fullyconnected2", 
      "attrs": {"num_hidden": "1"}, 
      "inputs": [[20, 0, 0], [26, 0, 0], [27, 0, 0]]
    }, 
    {
      "op": "broadcast_add", 
      "name": "broadcast_add0", 
      "inputs": [[25, 0, 0], [28, 0, 0]]
    }, 
    {
      "op": "BlockGrad", 
      "name": "blockgrad0", 
      "inputs": [[29, 0, 0]]
    }, 
    {
      "op": "null", 
      "name": "target", 
      "inputs": []
    }, 
    {
      "op": "null", 
      "name": "action", 
      "inputs": []
    }, 
    {
      "op": "one_hot", 
      "name": "one_hot0", 
      "attrs": {"depth": "33"}, 
      "inputs": [[32, 0, 0]]
    }, 
    {
      "op": "elemwise_mul", 
      "name": "_mul0", 
      "inputs": [[29, 0, 0], [33, 0, 0]]
    }, 
    {
      "op": "sum", 
      "name": "sum0", 
      "attrs": {"axis": "1"}, 
      "inputs": [[34, 0, 0]]
    }, 
    {
      "op": "elemwise_sub", 
      "name": "_minus0", 
      "inputs": [[31, 0, 0], [35, 0, 0]]
    }, 
    {
      "op": "square", 
      "name": "square0", 
      "inputs": [[36, 0, 0]]
    }, 
    {
      "op": "null", 
      "name": "mask", 
      "inputs": []
    }, 
    {
      "op": "elemwise_mul", 
      "name": "_mul1", 
      "inputs": [[37, 0, 0], [38, 0, 0]]
    }, 
    {
      "op": "sum", 
      "name": "sum1", 
      "inputs": [[39, 0, 0]]
    }, 
    {
      "op": "sum", 
      "name": "sum2", 
      "inputs": [[38, 0, 0]]
    }, 
    {
      "op": "elemwise_div", 
      "name": "_div0", 
      "inputs": [[40, 0, 0], [41, 0, 0]]
    }, 
    {
      "op": "MakeLoss", 
      "name": "makeloss0", 
      "inputs": [[42, 0, 0]]
    }
  ], 
  "arg_nodes": [
    0, 
    2, 
    3, 
    6, 
    7, 
    11, 
    12, 
    15, 
    16, 
    17, 
    21, 
    22, 
    26, 
    27, 
    31, 
    32, 
    38
  ], 
  "node_row_ptr": [
    0, 
    1, 
    2, 
    3, 
    4, 
    5, 
    6, 
    7, 
    8, 
    9, 
    10, 
    11, 
    12, 
    13, 
    14, 
    15, 
    16, 
    17, 
    18, 
    19, 
    20, 
    21, 
    22, 
    23, 
    24, 
    25, 
    26, 
    27, 
    28, 
    29, 
    30, 
    31, 
    32, 
    33, 
    34, 
    35, 
    36, 
    37, 
    38, 
    39, 
    40, 
    41, 
    42, 
    43, 
    44
  ], 
  "heads": [[30, 0, 0], [43, 0, 0]], 
  "attrs": {"mxnet_version": ["int", 10200]}
}